03_trained_model/best_model.pth (torch, 30116 bytes, 7 tensors)

linear1.weight f4 [32, 12]
000000 58 14 be bd 3a 6c 4a be 72 b2 dd 3e 22 50 4d 3e
       -0.09281224 -0.19767848 0.43300205 0.200501
000010 2b 77 9c 3d 84 56 d4 3e 18 0d 32 3e eb fa 3d be
       0.07639917 0.41472256 0.17387807 -0.18552749
000020 d8 9b aa 3d d9 f2 9f 3e d2 b4 1f be ee d8 96 be
       0.08330506 0.31239966 -0.15596321 -0.2946238
000030 8c 8b e5 bd df 09 a0 3e c9 0e 6d 3e c1 67 c7 bd
       -0.11208257 0.3125753 0.23150171 -0.09736586
000040 78 6f 19 be b6 e1 9d be 06 27 8e 3e eb 14 82 be
       -0.14983928 -0.30836266 0.27764148 -0.25406584
000050 44 0b 88 3e b1 41 a5 3e 41 35 30 3e c8 3f fc be
       0.26571095 0.3227668 0.17207815 -0.4926741
000060 cf 78 9a 3d b2 01 ae be 97 bb 06 3e a5 c2 8d 3e
       0.07542574 -0.33985668 0.13157497 0.27687564
000070 bf 43 85 3e b0 86 55 be b1 84 b7 3e d9 70 17 bf
       0.2602825 -0.2085216 0.35843423 -0.59156567
000080 65 36 5a bd c4 5f 2a 3e 14 ba 12 3f af 7e 1a be
       -0.05327453 0.16638094 0.5731518 -0.15087388
000090 71 5e 9f bc fa 02 0c 3f 6f 6b 53 3e a9 48 07 3e
       -0.019454213 0.5469204 0.20646451 0.13211311
0000a0 db 4b a9 3e 31 af 97 be fb 31 a3 3e 18 15 fb 3d
       0.33065686 -0.29625848 0.3187407 0.12259883
0000b0 f7 61 3d 3e 00 5a 20 bd da 7e 16 be c1 e8 74 be
       0.18494402 -0.03914833 -0.14696828 -0.23916914
0000c0 03 10 71 3e d1 6b db 3e a4 55 a9 bc 8f 88 9c be
       0.23541264 0.42855695 -0.02067072 -0.30572936
0000d0 0a ee 82 3e 21 02 8a 3e 1c 08 c6 bc c7 52 e5 3e
       0.25572234 0.2695475 -0.024173789 0.44789717
0000e0 e0 cd 49 be a6 81 9a 3e 10 91 89 3e 99 35 d9 3d
       -0.19707441 0.3017704 0.26868486 0.10605926
0000f0 10 05 83 be 81 c0 b1 be e4 18 6f 3e bd 56 55 3e
       -0.255898 -0.3471718 0.23349339 0.2083387
000100 f6 7d 16 be ae f5 22 bd 3a 85 8a bd 4a b3 a8 bc
       -0.14696488 -0.03978508 -0.06763692 -0.020593304
000110 f5 50 3f bc 13 19 ce be 6f 40 96 be db d5 8e be
       -0.0116770165 -0.40253505 -0.29346034 -0.27897534
000120 25 f7 06 bc 2e 9b 9a bc 0c d5 24 3e df 59 30 3e
       -0.008237635 -0.018872824 0.16096896 0.17221783
000130 3f 5f 7e 3e 48 90 55 3e 61 c5 e5 3c 47 6f b6 3e
       0.24841021 0.2085582 0.02804822 0.35631773
000140 0a f3 51 3e e8 cd cd 3e 50 07 1d be 95 ad ba 3e
       0.20502868 0.40196157 -0.15334821 0.36460558
000150 e7 ee 00 3f df b1 08 bf 4e c9 58 3e 5c 57 ba 3e
       0.50364536 -0.5339641 0.21170542 0.36394775
000160 96 6c ca be 38 36 1c 3d 4c a7 79 be b5 2a 85 3e
       -0.3953597 0.038137645 -0.24380225 0.26009145
000170 dc 87 06 3e 71 b9 91 3e 55 10 40 be 08 76 a7 3c
       0.13137764 0.28461793 -0.1875623 0.020442024
000180 45 ed 46 3d d8 1f ec 3d 3b 6a 67 3d cd e9 87 3e
       0.04856612 0.11529511 0.056497794 0.26545563
000190 d3 16 b0 3e 68 40 98 3e 34 62 42 be 9a 7e 12 3e
       0.34392413 0.29736638 -0.18982774 0.14306107
0001a0 36 fd 2e 3e 5c 23 e2 3e 71 57 94 bd 71 82 0c 3e
       0.1708878 0.44167602 -0.072432406 0.13721634
0001b0 0e 8a 06 3e da 8d aa 3e f3 6d de 3e 91 f8 19 bd
       0.13138601 0.3331135 0.4344326 -0.037590567
0001c0 81 67 a0 3e fb ca bd 3e f5 d6 f7 bd 26 03 28 3e
       0.31328967 0.37068924 -0.12101547 0.16407451
0001d0 a9 d7 50 bc e3 38 bd 3e ec 87 cf 3e 8c e5 ac be
       -0.01274673 0.36957464 0.40533388 -0.3376888
0001e0 16 64 5b be 73 3c 1f bf e5 c6 22 bd 22 e7 a6 3e
       -0.21424899 -0.62201613 -0.03974046 0.32598215
0001f0 95 53 31 3e ad bd 67 be ae 5f a7 3e 88 09 07 bf
       0.1731704 -0.2263095 0.32690185 -0.5274892
000200 57 c1 5f 3e 6b 1f 35 3e 62 16 aa be 00 c5 e6 3e
       0.21851097 0.17687766 -0.33220202 0.45072174
000210 32 e7 e6 bd 4a 60 e5 be ad b9 b7 3e 71 5c 18 3f
       -0.11274566 -0.44800025 0.35883847 0.59516054
000220 1d 99 a5 be c1 dd 2f 3f 0d ae 96 3e 96 07 1c 3e
       -0.3234338 0.68697745 0.29429665 0.15237269
000230 27 2d 9b bd 94 ee 2d be 9e c8 8f 3e 48 db 0b bf
       -0.075769715 -0.16985542 0.28082746 -0.5463147
000240 91 80 76 be 94 68 ad bd 83 58 23 be d6 88 3c be
       -0.24072482 -0.08467212 -0.15951733 -0.18411574
000250 59 a3 8c 3e 13 8c a4 bd 9c ce 32 3e 1e 11 98 be
       0.27468374 -0.080345295 0.17461628 -0.2970056
000260 d6 5b b1 bd 5b 76 16 bf 69 24 10 3e ed 44 12 be
       -0.086600944 -0.58774346 0.1407639 -0.14284106
000270 4f da c3 be 1b 55 11 bd a9 70 da 3d 77 c2 71 3d
       -0.38252494 -0.035481554 0.106660195 0.059023347
000280 fc 88 82 be e1 90 59 3e b4 6b 8e be 31 c0 75 bd
       -0.25495136 0.21246673 -0.27816546 -0.05999774
000290 0f f8 51 3e 95 34 ab 3e d0 54 a7 be 56 82 ea 3e
       0.20504783 0.33438554 -0.32681894 0.45802563
0002a0 70 6c 0a 3e 39 0e a5 be 57 55 02 3e 4a 30 0c be
       0.13517928 -0.32237414 0.12727867 -0.13690296
0002b0 52 b4 9e 3e 3a b4 0a be b4 4f 67 3e 0a c4 c6 3e
       0.30996948 -0.13545313 0.22588998 0.3882144
0002c0 f0 61 60 3d ac 4a 0f 3e 07 6f b9 3e b7 a4 06 be
       0.0547809 0.13993329 0.3621752 -0.13148771
0002d0 12 63 89 3d 5d 57 c2 3d cd c8 c6 3c 52 85 a6 bd
       0.06708349 0.094893195 0.024265671 -0.081308976
0002e0 76 83 fd ba fe 49 d1 3c 62 c7 45 3d df e2 67 3d
       -0.0019341547 0.025547978 0.04828585 0.056612846
0002f0 f0 d0 05 be c7 70 84 3d 49 36 63 bf ba e7 4e 3f
       -0.13067985 0.06466823 -0.8875471 0.80822337
000300 03 61 d2 be d7 dd d1 3c ee 87 b1 bd a1 b7 70 3e
       -0.4108964 0.025618477 -0.08668505 0.23507549
000310 46 27 1e 3e d6 41 d1 3e a9 af c3 bd 54 75 49 3d
       0.15444669 0.4087054 -0.09554989 0.04918416
000320 2f 11 a9 be 84 a3 01 3e e9 e7 71 bd 4b 90 a8 bd
       -0.33020923 0.12660033 -0.059059057 -0.08230647
000330 b2 67 39 3e a4 86 02 bf 65 d6 2a be 29 80 1a 3e
       0.18105963 -0.50986695 -0.16683348 0.15087952
000340 84 ea 8f 3c b4 1d 07 3e 1a 67 b8 3e 16 9e 9e bc
       0.01756788 0.13194925 0.3601616 -0.01936249
000350 22 47 d0 3d 2c 4f 4b 3e ea 77 c6 3e 9b b2 1d 3c
       0.101698175 0.1985442 0.38763362 0.009625102
000360 17 c3 3a 3e 8a db 21 be 46 6c 95 be 5d 63 09 3e
       0.18238483 -0.15806404 -0.2918417 0.1341681
000370 58 9c 3f 3e 48 d5 1a 3e a3 f2 b8 be e5 b0 a6 3e
       0.18711984 0.15120423 -0.36122617 0.32556835
000380 80 32 ca 3e be 3c f7 3e cf 6f ed 3d 52 06 39 bf
       0.39491653 0.4828853 0.115935914 -0.7227527
000390 23 aa bb 3e f1 87 fc bc e9 4e b0 3d 8a bc 12 3f
       0.36653242 -0.03082654 0.08608801 0.5731894
0003a0 20 1f 3e 3e 4f a6 d2 3e cc ef ac 3d 88 27 b4 be
       0.18566561 0.41142508 0.08444175 -0.3518641
0003b0 f1 9e 63 3e 08 60 01 3e 27 b7 c2 be 06 c8 2c 3e
       0.222286 0.1263429 -0.3803036 0.16873178
0003c0 99 b0 7d 3d 97 d4 32 3e 0f 7b 0e 3f d9 82 f2 be
       0.061935995 0.17463909 0.5565652 -0.47365454
0003d0 6d 88 85 3e 4b 34 7c 3e b9 58 7e 3e 24 ed 74 be
       0.26080647 0.24629323 0.24838533 -0.23918587
0003e0 a1 dd 18 bf c9 65 0e 3e bd aa d1 be b8 88 8a 3e
       -0.5971318 0.13906015 -0.40950575 0.27057433
0003f0 82 f3 d4 bd 68 15 81 be 50 42 4b 3e 53 7d aa bd
       -0.10398008 -0.25211644 0.19849515 -0.08324685

linear1.bias f4 [32]
000000 e0 7f 06 3e ba b6 fb 3e b9 4c df 3c 2f 84 0a bd
       0.13134718 0.49162847 0.027258264 -0.033817466
000010 c6 d0 28 bd f2 ec 43 3e 2d 14 36 3e 2a d8 4d be
       -0.041214727 0.19133356 0.17781134 -0.20101991
000020 3e d0 2c bd 15 b8 a6 3d 05 32 bc 3c 5a 68 f1 3d
       -0.042190783 0.081405796 0.02297307 0.117874816
000030 28 bd a2 3e 80 47 55 3e 0b 4f d1 3e 89 f1 28 3e
       0.3178494 0.20828056 0.40880617 0.16498388
000040 28 e3 5e be 5d 78 f9 3d d1 d6 55 3e 6b d6 b5 3e
       -0.2176634 0.121811606 0.20882727 0.3551515
000050 4b 6f 0b 3d 63 a9 1f be bf fe 19 3e 4e e4 f1 3d
       0.034041684 -0.1559196 0.15038584 0.11811124
000060 85 4b 11 3e c6 d8 91 bd 58 ec 74 be dc 96 90 3e
       0.14188965 -0.071214244 -0.23918283 0.28240097
000070 57 72 ce 3e bd 54 dd 3e 04 bf ae 3e 16 19 d0 3d
       0.4032161 0.43228713 0.34130108 0.10161035

linear2.weight f4 [128, 32]
000000 e1 80 be 3d 60 91 cf 3c 3a 21 54 3d f0 d6 82 bd
       0.093019255 0.025337875 0.0517895 -0.06388652
000010 41 ab 1f 3d 8e 60 9c 3e ef 5a fb 3d 85 80 43 3e
       0.03898168 0.30542415 0.122732036 0.19091995
000020 86 53 84 3d f8 11 64 3d f7 62 f1 bd ac b1 5a 3e
       0.06461243 0.0556812 -0.11786454 0.21356839
000030 5d 61 b4 3d c7 a2 05 3e 72 9a 3a 3e 96 a4 7c 3e
       0.08807633 0.13050376 0.18222979 0.2467216
000040 60 13 0f 3e b6 2b 92 3c 64 b4 71 3e 95 49 aa 3d
       0.13972235 0.017843109 0.2360397 0.08314816
000050 c3 bd 14 3d 6a b5 27 3e f4 ae e7 3d 9a 86 62 bd
       0.036313783 0.16377798 0.113126665 -0.055304147
000060 09 65 69 3e 13 3d d9 3d 56 22 06 be 9f fd 86 3d
       0.22792448 0.10607352 -0.13099036 0.06591343
000070 77 ea 6e bd ce b0 26 be ad 76 31 3e 99 71 55 3e
       -0.05832907 -0.16278383 0.17330427 0.20844115
000080 20 21 15 3e 12 83 b2 3e 4a f7 07 3f 05 0a 97 be
       0.14563417 0.34865624 0.5311171 -0.29499832
000090 fb 54 bb bd 48 25 62 3e 30 3b e5 be dc 33 b8 be
       -0.09147068 0.22084534 -0.4477172 -0.35977066
0000a0 39 ce 57 be de 88 b0 3e e8 9f 35 bf be 03 69 3e
       -0.21074761 0.3447942 -0.7094712 0.22755334
0000b0 58 5f 39 3e 6f bf a2 be be 58 26 3e db 7a 49 bf
       0.18102777 -0.31786677 0.1624479 -0.7870309
0000c0 c0 7c 2c be 33 21 6e 3e c7 76 10 3e 1b 87 e1 bc
       -0.16844463 0.23254852 0.1410781 -0.027530244
0000d0 b0 7f e5 be 45 b6 18 3c 85 89 07 3f d5 9f 71 3e
       -0.4482398 0.0093208 0.52944213 0.23596127
0000e0 a1 57 30 3e a5 e7 6f 3e e0 23 84 be da d0 a6 3d
       0.17220928 0.23428209 -0.2580862 0.08145304
0000f0 b7 62 a6 bd f2 bf c2 be 0e 37 81 be ab 32 94 bd
       -0.08124297 -0.38037068 -0.25237316 -0.07236227
000100 e4 31 fd 3c 9a 0b 9b 3d 8c b0 c7 3c 52 72 9b 3d
       0.030907579 0.07570572 0.024376176 0.07590164
000110 44 ec e9 3c 01 71 7c bd 46 7f 73 3d 9e c4 2d 3d
       0.028555043 -0.061631206 0.05944755 0.042423837
000120 ab e5 81 3e d0 65 b3 3d 1f a4 0e 3e 8a aa b5 3d
       0.25370535 0.087596536 0.13929795 0.08870418
000130 fe 79 9c bd 0c 24 1d 3e b2 f6 96 3d 63 09 b1 be
       -0.07640456 0.15345782 0.07371272 -0.34577474
000140 c5 48 fd 3d b0 76 06 3e d8 81 70 3c 01 c1 b6 3c
       0.12367395 0.13131213 0.014679395 0.022308828
000150 f1 78 d3 3d 82 b0 1b 3e f8 34 a0 be c4 81 3b be
       0.10325802 0.15204051 -0.31290412 -0.1831122
000160 8c 39 21 3e b8 c6 26 3e d2 5c 15 3e fc d3 13 bb
       0.15744609 0.16286743 0.1458619 -0.0022556772
000170 64 6b bd 3d 81 79 54 3e 52 35 c1 3c be 73 f5 bd
       0.09248999 0.20749475 0.023584995 -0.11984967
000180 e2 81 ce 3d 21 d0 dc 3d 91 d1 05 3e 3e 10 54 3e
       0.10083367 0.10781885 0.13068224 0.20709321
000190 10 ba a2 3d ad 9b 4e bd 89 b4 7d bc d5 c1 2d 3d
       0.07945645 -0.050441433 -0.0154849375 0.04242118
0001a0 48 ee 32 3e 06 fc c7 3d d8 b6 fb 3d 28 74 09 3d
       0.1747371 0.097648665 0.12290734 0.03355804
0001b0 8a 33 f7 3d 26 24 75 3e 3b 52 bc 3d ef 6c 36 be
       0.12070377 0.23939571 0.09195372 -0.17814992
0001c0 21 82 85 bc a6 bf 8d bd 8d c0 3d 3d 2e f8 e2 3d
       -0.016297402 -0.0692132 0.04632621 0.11082493
0001d0 88 ea 90 bd 2a 68 c7 3d 1f da 16 be 92 68 34 3d
       -0.07075983 0.097366646 -0.14731644 0.04404504
0001e0 8d 6a 89 3d 03 4c 4a bd 8a d9 a9 3e e0 a4 0f be
       0.06709776 -0.049388897 0.33173782 -0.14027739
0001f0 76 1d 03 3e 3d 3b 36 3e fc 8b 2f 3e d4 3d 5e 3d
       0.12804207 0.17796035 0.17143244 0.054258183
000200 63 7c b2 3c 9e 2f 8f 3e ab e9 ac bd 86 d8 8c 3e
       0.021787828 0.27966017 -0.08443006 0.27508944
000210 78 de f1 bb 8d b9 58 be 2f 08 c7 3a 31 28 2e be
       -0.0073812567 -0.21164532 0.0015184934 -0.1700752
000220 2c 7d 19 bd bc 59 4a 3d 4b 81 8e 3d b6 03 ea 3d
       -0.03747289 0.049401984 0.069582544 0.11426489
000230 e3 a2 09 be e8 3a e1 bc c1 50 90 3e 45 66 aa be
       -0.13441043 -0.027493909 0.2818661 -0.3328115
000240 e6 c8 20 bc 9f dd 3c 3e 3a fb 46 bb 31 91 29 3e
       -0.009813523 0.18443917 -0.0030362145 0.16559292
000250 3f c8 f9 bd 38 b1 77 3e f5 37 d0 3d d2 33 b5 bd
       -0.12196397 0.24188697 0.10166923 -0.088477746
000260 c0 f9 70 3d 67 b4 05 3e 57 5f 31 3d 1a 0b 99 ba
       0.05883193 0.130571 0.043303814 -0.0011676282
000270 c1 f6 81 3d 95 af 03 3d 3d d8 50 3e 04 37 99 3d
       0.06345893 0.03214987 0.20394988 0.074811965
000280 39 4b 54 3e 01 e7 ad 3e dc 17 85 3d a1 f1 a9 3c
       0.2073182 0.33965304 0.064986914 0.0207451
000290 7b 67 b7 3d 7b 8b cb bd 0c 7e 0f 3e 8d 13 aa 3e
       0.08955284 -0.09938713 0.14012927 0.3321804
0002a0 96 b8 68 3e ec a2 59 3e 71 89 2a 3c a3 c7 56 bd
       0.22726664 0.21253556 0.010408745 -0.052436482
0002b0 e8 cc d3 be a9 10 d9 3c f9 98 1b 3e 4b 50 eb be
       -0.4136727 0.026497202 0.15195073 -0.45959696
0002c0 94 be 13 3c 0f 8a 37 bd 19 46 81 3e 5e 78 a5 3e
       0.009017605 -0.044809397 0.25248793 0.32318395
0002d0 e2 4c c3 bd 42 22 71 bc 9e 78 d4 bd 40 09 a5 bd
       -0.095361486 -0.01471764 -0.103745684 -0.08058405
0002e0 98 ad 54 bd 57 1c 14 bd 18 54 61 3e 37 e4 5d bc
       -0.051923364 -0.03615984 0.22004735 -0.01354318
0002f0 15 67 27 3d c4 da 91 3e 89 ee c2 3d 49 ac 7b be
       0.04086979 0.28487217 0.09518153 -0.2457744
000300 b9 07 15 3e 35 6e 07 bc 76 c9 98 bd e2 3e 03 3d
       0.14553727 -0.0082660215 -0.074603006 0.03204239
000310 a7 94 66 3d 30 98 83 3d e5 8a 0d 3a 3a 95 70 3e
       0.05629411 0.06425512 0.000539942 0.23494425
000320 3a 9b 2c 3e f1 7c 8a 3e 4a 14 54 3e c5 e3 05 3c
       0.16856089 0.27048448 0.20710865 0.00817198
000330 90 e9 d1 bd 61 0a df 3d 7a b7 d0 3d cc 71 54 bd
       -0.10249627 0.108906515 0.101912454 -0.051866338
000340 ca d1 5a 3d 53 ce 01 3e 66 0f c8 bb 2b d8 aa ba
       0.053422727 0.12676363 -0.0061053513 -0.0013034394
000350 78 c3 72 be 20 74 2d 3e 0a eb 66 3e e9 de b9 3c
       -0.23707378 0.1693883 0.22550598 0.0226893
000360 5c 45 ed bc 9c 85 4b 3e 6f 4c d2 bb 81 60 1d bd
       -0.028963737 0.19875187 -0.006417803 -0.03842211
000370 ea c6 68 bd 84 6d 99 3d 06 22 f1 bc be 0f 63 3d
       -0.056830324 0.074915916 -0.029435169 0.055434935
000380 2f ab 03 bf a2 80 bf be e8 80 c4 3e a0 34 62 bf
       -0.5143308 -0.37402827 0.38379598 -0.8836155
000390 4a e6 ba bd a0 28 ec be 8b 12 b3 be 70 cf dd be
       -0.091259554 -0.46124744 -0.34975085 -0.43322325
0003a0 c8 22 14 bf 0b b8 0f 3d 1c 22 ab bd b5 b6 86 bf
       -0.5786557 0.035087626 -0.08356115 -1.0524508
0003b0 1a 93 2e bd 7a 38 2a 3e a4 e9 3e 3e d6 1d 22 3e
       -0.042620756 0.16623107 0.18643814 0.15831694
0003c0 a7 a0 08 bd e7 a4 cd bd 15 60 cb be 60 c0 37 bf
       -0.033356335 -0.10041218 -0.39721742 -0.71777916
0003d0 4d 5d 09 3f 64 93 c6 3e 21 ea 0f 3e 25 be c4 3e
       0.5365799 0.38784325 0.14054157 0.3842632
0003e0 42 9a 83 be 50 10 ff be e9 91 07 3f e6 0b fb 3e
       -0.25703627 -0.49817133 0.52957016 0.49032515
0003f0 c0 d4 89 3e 50 7c c7 3e 74 44 61 be 35 e2 f5 3e
       0.26920128 0.3896203 -0.21998769 0.48024145

linear2.bias f4 [128]
000000 ae 38 b6 3c 8b 0c e9 3d 60 9b f9 3d 45 06 c8 bd
       0.022243824 0.113793455 0.121878386 -0.09766821
000010 31 28 90 bc 72 7e f4 3c aa 9a 80 bd 1b e9 1a 3e
       -0.01759729 0.02984545 -0.062795 0.15127985
000020 93 b2 07 bd 7c 82 8e 3d dd 63 32 be d8 a2 a2 3d
       -0.033129286 0.06958482 -0.17420907 0.07941216
000030 de 80 88 bd 8c 0e 8d 3d b7 5d 84 3c 36 06 7b 3d
       -0.066652045 0.0688754 0.016157968 0.06128522
000040 1a 75 28 3e 9b 9f 6f bd 73 85 32 3e c3 b8 23 3e
       0.1645092 -0.05850182 0.1743372 0.1598845
000050 15 36 cb 3d 4a 1a 39 3e d8 cc c0 3d 8e 5b 00 3e
       0.09922425 0.18076435 0.09414071 0.12534925
000060 b7 a0 20 3e 4c 8b e1 3d 68 10 10 3e b0 ce 2b 3e
       0.15686308 0.11012897 0.14068758 0.16778064
000070 a8 48 8a 3c 3a 70 00 3e b1 e8 ff 3d 28 2a 04 bd
       0.016880348 0.12542811 0.12495554 -0.032266766
000080 e2 c5 f0 3d 26 c9 2e 3d 8b ac 07 be df 6d 37 3d
       0.11756493 0.0426723 -0.13249414 0.044782516
000090 94 89 4d 3e 7f 91 0c 3e 98 54 ea 3d 3b 59 cc 3d
       0.20072013 0.13727377 0.11441916 0.09977957
0000a0 05 4a 0c 3e 67 0e 37 3e 64 43 cd bd df 72 44 be
       0.13700111 0.17876588 -0.10022619 -0.19184445
0000b0 82 c2 cd 3d 17 69 f1 bd 4a 80 3d 3d 46 14 0a 3e
       0.10046865 -0.117876224 0.046264924 0.13484296
0000c0 94 99 16 be d9 bd a4 3e 40 f7 c1 bb 4c b2 05 bd
       -0.14707023 0.32176092 -0.005919367 -0.03264074
0000d0 0f 41 07 3d d2 65 c6 3d 8a dc 54 3e 43 80 46 3e
       0.03302103 0.096873894 0.20787254 0.19384865
0000e0 31 fc 19 3d 9c 37 04 3e 1b e5 97 bd af 56 40 be
       0.037594024 0.12911838 -0.07416745 -0.18783067
0000f0 1f d7 95 bc 5a d7 5c 3b 94 43 08 3c 7e 92 0d 3e
       -0.018291054 0.0033697695 0.008316893 0.13825414
000100 94 94 f8 3c df e9 15 ba 15 ad 63 3d d7 c3 91 3d
       0.030344285 -0.00057187484 0.055584986 0.071174316
000110 82 73 0f be 5c fc fc bc d2 7d f0 3d 9c 44 09 3e
       -0.14008906 -0.030882053 0.11742748 0.13405079
000120 48 d0 03 3e c3 72 83 3e 1a 57 d2 3d 59 26 a5 3d
       0.12872422 0.25673494 0.102705196 0.08063955
000130 84 bb a3 bc f5 aa 2c 3d f6 40 ec 3d ec 3d 1c be
       -0.019986875 0.042155225 0.11535828 -0.15257996
000140 7d 9d fa bc 6d 05 8d 3d bc 7a 1c 3e dc eb 02 3e
       -0.030592674 0.068858005 0.15281194 0.12785286
000150 a8 1f 31 3e c3 fc 95 3d 5c e4 63 bd 77 00 58 3e
       0.17297232 0.07323601 -0.055637702 0.21093927
000160 96 c6 9f 3d 92 72 90 3e 45 e9 1e 3e 1f 49 ee b9
       0.07801549 0.2821241 0.15518673 -0.00045449377
000170 49 dc b8 3d 57 d8 5c 3d e2 c2 26 3e 90 24 e1 3d
       0.09026391 0.053917255 0.1628528 0.10993302
000180 8f 60 95 3c 4f 1a 69 bd c0 a5 51 3d 68 84 21 3e
       0.01823452 -0.056909855 0.051183462 0.15773165
000190 02 02 bb 3d c0 f6 0b 3d 94 4a 64 3e 31 9b cc bd
       0.09131242 0.034170866 0.22294074 -0.09990538
0001a0 c0 35 48 bd a1 41 85 3d b0 d0 d0 bd 94 3d 14 3d
       -0.048879385 0.06506658 -0.10196054 0.036191538
0001b0 24 76 d1 3e 12 c7 76 3d 73 2f a6 3d 93 8b 0f 3d
       0.40910447 0.060248442 0.08114519 0.035045218
0001c0 cb 38 00 3e 99 3d a0 bd bf f7 ba bd 07 b2 0b 3e
       0.12521665 -0.07824249 -0.09129285 0.13642131
0001d0 3b 6b ae 3d 11 3e 64 3e d6 29 2c be 82 ca 5e 3e
       0.08516546 0.22289301 -0.16812834 0.21756938
0001e0 0f c2 d0 bd 3f 40 15 be 48 f7 10 3c 7c 10 84 3d
       -0.10193264 -0.14575289 0.008848019 0.06448457
0001f0 39 d3 0b 3e 7b ac 1f 3e 50 ba 97 bd 00 92 aa 3d
       0.13654794 0.1559314 -0.07408583 0.083286285

linear3.weight f4 [16, 128]
000000 72 df 55 3e a7 1a 83 3e 84 50 1d be 6f 6b 13 be
       0.20886019 0.25606272 -0.15362746 -0.14396451
000010 db 1a 40 be 0f c5 93 be d9 2b 3c 3e 4e 2a bc 3e
       -0.18760245 -0.2886128 0.18376102 0.36751026
000020 ca b9 f7 3e 85 35 04 3e fa 69 80 bc db f0 f1 bd
       0.48383933 0.12911041 -0.015675534 -0.11813518
000030 c9 99 c0 bd 35 25 13 3e a1 b0 5d be dd c7 31 3e
       -0.09404332 0.14369662 -0.2164941 0.17361398
000040 58 56 00 bf de e3 b2 3e 5a aa 4d be 4c bc 44 3e
       -0.5013175 0.34939474 -0.20084515 0.19212455
000050 51 4a 21 3e 28 d7 6f 3e 99 61 53 be 8a 0f 4a bf
       0.15751006 0.2342192 -0.206427 -0.7892996
000060 b6 d9 92 3c 8c 98 38 be ba b9 83 3e 9e 78 88 be
       0.017926078 -0.18026942 0.25727636 -0.26654524
000070 05 a0 71 3e 01 93 a2 3d bd e0 5b 3e 63 0e 41 be
       0.23596199 0.07938195 0.2147245 -0.18853144
000080 a0 ac ee b8 84 32 8e be 17 5b 76 3e ec 8a 9c be
       -0.00011380878 -0.27772915 0.24058186 -0.3057474
000090 d4 5b 4c 3e b2 03 3a be 24 78 96 be 27 48 2f 3f
       0.19956905 -0.18165472 -0.29388535 0.6846947
0000a0 3c eb 20 bf ab b1 1a bf 6f 80 66 3e b3 45 db bd
       -0.6285894 -0.6042735 0.22509931 -0.107066534
0000b0 5f 0f 26 3f 4e 04 0b be cd 5e 1d 3e 85 80 a5 bc
       0.64867204 -0.13575861 0.15368195 -0.020202884
0000c0 79 45 7d be 44 ce 44 bf 4b f5 f7 3d 52 99 1e be
       -0.24733533 -0.76877236 0.12107333 -0.15488175
0000d0 46 50 41 3e 7c 3f c9 3d 49 46 90 3d 92 a7 a2 be
       0.18878278 0.09826562 0.07044656 -0.3176847
0000e0 5b 0b 0a bf 88 aa da 3d 91 06 88 be 73 af 87 3d
       -0.5392358 0.106770575 -0.2656751 0.06625261
0000f0 30 cd 2c 3e af 49 0b be 38 52 5a be 9f 85 a9 3d
       0.16875148 -0.13602327 -0.21320426 0.08277439
000100 ba e2 d3 bd 83 21 ef bd 2f a3 d7 be fc e6 5b 3e
       -0.10345979 -0.11676314 -0.42116687 0.21474832
000110 88 5a 95 3f 15 25 a4 be b2 3e f6 bd b7 3c 8d be
       1.1668253 -0.3205954 -0.12023677 -0.27585384
000120 8c 54 0a 3e f3 6e bd be 97 54 2d 3e 90 56 23 be
       0.13508815 -0.3699871 0.169268 -0.1595099
000130 d0 ab 1f bf 58 0b 8a be 66 ed 96 be 43 11 48 bd
       -0.6237154 -0.2696178 -0.29477996 -0.048844587
000140 ba 7f bc be 37 2a ba 3b 56 bc 39 3e 87 fb 17 3f
       -0.36816198 0.005681302 0.1813825 0.59368175
000150 0c 8e 52 be 53 8c d7 3e 7a cf 99 be af fe 7f 3e
       -0.20561999 0.42099246 -0.30041105 0.24999498
000160 c2 fb b2 bd 14 6a 80 be 3b 8f 3c bd c6 30 04 3f
       -0.08739425 -0.2508093 -0.046035033 0.5163692
000170 3c d3 31 3e 46 e1 cd 3e 75 d6 d4 3d 53 59 17 bd
       0.17365736 0.40210932 0.10392467 -0.03695042
000180 a5 da 56 3f 79 97 90 3e 08 4c 01 bd f8 50 4f 3e
       0.83927375 0.28240564 -0.03156665 0.20245731
000190 dd 3d 5d 3e e4 68 90 be 34 c9 41 bf ba d1 76 bb
       0.2160563 -0.28205025 -0.75697637 -0.0037661628
0001a0 30 83 48 3e 41 cc 64 be 37 51 9d bb b2 a2 2c 3e
       0.19581294 -0.22343542 -0.0048009413 0.16858938
0001b0 70 42 24 bf 81 3a 0d bb d2 6d 71 3e 8e 75 71 3e
       -0.64163876 -0.0021549764 0.2357705 0.2358
0001c0 b7 80 14 3e 08 5d 90 3e 27 6a 7f bd 81 58 2b 3e
       0.14502226 0.28195977 -0.062357094 0.1673298
0001d0 51 38 1c bf 95 92 4a 3f f4 66 ba bd de 67 37 3e
       -0.6102343 0.79129916 -0.09101668 0.17910716
0001e0 df d9 90 3d 84 8e 06 3d f3 50 83 3e 03 1f f7 3e
       0.070728056 0.032850757 0.25647697 0.48265848
0001f0 f5 8f 5b 3e 66 01 9e 3d 16 b8 a2 3e 42 dc c4 be
       0.21441634 0.077151105 0.3178107 -0.38449293
000200 2e 64 09 bd 46 46 82 3d 23 c9 c2 bc ee 27 0e bd
       -0.033542804 0.0636106 -0.02377755 -0.03470605
000210 99 0b 76 bd 72 60 36 bd a7 8d e6 3c 27 47 83 3d
       -0.060069654 -0.04452557 0.028143717 0.064100556
000220 c1 7d 2e 3d 44 08 5a 3d c5 e5 07 3c f1 85 ce bc
       0.042600397 0.05323054 0.008294527 -0.025210353
000230 61 73 1a bd e3 22 bd bd aa 43 67 bd f3 a9 8b bd
       -0.03770769 -0.0923517 -0.056461014 -0.068195246
000240 0e 15 83 3d 94 c9 17 3d 26 9a f5 bc 71 fd a5 bc
       0.064005 0.037057474 -0.02998073 -0.020262452
000250 c9 2f 73 bd 4e 0e 6c bd c8 4f 75 3d 15 39 f9 bc
       -0.059371743 -0.05763083 0.05989054 -0.030422727
000260 41 90 2e bd 2d 19 8c bd e8 f0 81 bd bb 3e 94 bd
       -0.04261804 -0.068407394 -0.06344777 -0.072385274
000270 65 f1 e3 bc 10 51 54 3d a6 04 47 3d b0 37 3a bd
       -0.027825067 0.05183512 0.048588417 -0.045463264
000280 eb b6 8b bd 52 fa ba 3c b2 ab 8f 3d 96 40 88 bd
       -0.06821998 0.02282444 0.0701517 -0.06652944
000290 c8 08 40 3d e5 9d 38 3d 0d 51 dc 3c 86 7c 66 3d
       0.046883374 0.045072455 0.026894117 0.0562711
0002a0 96 d7 07 bc 4e e0 9c 3d f0 24 0a 3d bf ff 1d 3d
       -0.008291146 0.0765997 0.033726633 0.038573977
0002b0 e1 93 46 bd ee aa 83 bc 8d 5d a1 bd 0e 40 96 bd
       -0.048480872 -0.016072717 -0.078791715 -0.07336436
0002c0 2c 48 b8 bd cb 09 b3 3d be c7 b8 bd e1 71 5a bd
       -0.08998141 0.08742102 -0.09022473 -0.05333126
0002d0 72 46 49 3d 04 db df 3c 77 60 f0 3c 1a de b3 3c
       0.049139448 0.027326114 0.029342873 0.021956492
0002e0 c9 91 a1 bd 80 4a c7 bc 63 70 78 bc 07 01 9c 3d
       -0.078891344 -0.024327517 -0.015163514 0.076173835
0002f0 f7 3a 5d bd 71 48 93 3d 59 53 99 bd 2e f0 29 bd
       -0.05401131 0.071915515 -0.074866004 -0.04148882
000300 60 12 5c 3d e3 41 c3 3c 54 db 64 bd b5 b1 3a bc
       0.05372846 0.023835128 -0.05587323 -0.011394908
000310 06 8a c5 bd 3f 40 b7 bc 86 2c 98 3d fa c4 3c 3d
       -0.096454665 -0.022369502 0.07430367 0.04608629
000320 98 b2 48 bd 08 2c df 3c 0a e8 81 3d 93 ae 97 bd
       -0.048998445 0.027242675 0.06343086 -0.07406344
000330 76 f9 29 3d e5 b4 b8 3a e8 0e 46 3d 05 1f 88 3d
       0.04149767 0.0014091997 0.04835406 0.066465415
000340 c1 13 a8 3c c6 b6 77 bd c4 18 ed 3a 5e e3 82 bd
       0.020517232 -0.06047704 0.0018089046 -0.06391023
000350 d1 61 0e 3b 18 da 7f 3b 83 1b d9 3b e2 3b a4 bd
       0.0021725784 0.0039039906 0.006625594 -0.08019234
000360 52 bc 02 bd af 11 15 3d cb d5 1e 3d 6e ff 25 3d
       -0.031917877 0.036393818 0.038778108 0.0405268
000370 69 24 05 3d e7 b6 bf bd f6 af a2 bd 41 c6 bd bd
       0.032505427 -0.09361058 -0.07943718 -0.092663296
000380 73 dc ba bc dd ee af bd 79 8c 61 3d 2a 49 12 bc
       -0.022810197 -0.085904814 0.055065606 -0.0089285765
000390 59 16 8e 3d b2 99 9d 3b d7 e7 95 bc e8 7e 87 bd
       0.06937856 0.0048095817 -0.018299026 -0.06616002
0003a0 68 7c 30 3d 7f 90 13 bc f0 3c 63 bd 11 7e d8 bc
       0.043087393 -0.0090066185 -0.055478036 -0.0264273
0003b0 c3 aa 92 b8 21 f1 68 bd 15 2d b2 3b f8 a2 60 3b
       -6.993629e-05 -0.056870583 0.005437503 0.0034276824
0003c0 03 95 8b 3d 2e c4 8f 3d 17 23 57 3d 64 19 9a bc
       0.06815531 0.0701984 0.0525237 -0.018810935
0003d0 dc e3 6f bd 6f 85 a2 bd 84 56 1c 3d 7f 4b 5d 3c
       -0.058566913 -0.07935607 0.038168445 0.013506769
0003e0 1d d5 41 3d 72 f4 40 bd cd 2d 83 bd bd 3f a8 3c
       0.04732238 -0.04710812 -0.0640522 0.020538205
0003f0 78 13 2e bc eb 11 5f bd e7 3f 4e 3d 91 be 40 bd
       -0.010624759 -0.054460447 0.05035391 -0.04705674

linear3.bias f4 [16]
000000 99 b2 2d 3e 8c 8c 1a bd d9 36 90 3d b7 23 74 bd
       0.16962661 -0.037731692 0.07041711 -0.059604373
000010 8e 9a 8d 3a e6 0a c5 3c 79 b6 95 bd 7d 96 64 bc
       0.0010803507 0.024053048 -0.073101945 -0.013951895
000020 a8 84 4e 3d 95 71 b2 bd ae 50 8e bd 0a 8d 97 3d
       0.05041948 -0.0871307 -0.06948982 0.07399948
000030 e4 6f 6e 3b 88 ae 8a 3c 0b 15 c4 3d fd 58 47 bd
       0.003638261 0.016928926 0.09574326 -0.04866885

fc.weight f4 [1, 16]
000000 fc 1f 0d 3f 4f b9 5f 3c df e1 67 be 16 93 72 3d
       0.5512693 0.013655021 -0.22644757 0.059222303
000010 7c d4 91 3d a5 10 16 3f b9 12 12 3e 12 f2 3c 3e
       0.07120606 0.5861915 0.14264955 0.18451717
000020 71 85 1b be db 98 37 be 41 a2 1b be 33 69 91 be
       -0.15187623 -0.17929403 -0.15198614 -0.28400573
000030 79 79 2b 3e 7d 0d a1 be e2 cb 86 3f 59 92 b6 be
       0.16745557 -0.31455603 1.053097 -0.3565853
